chromedata/optimization_guide_model_store/20/E6DC4029A1E4B4C1/ED204A7B4B8321FC/model.tflite (tflite, 64852 bytes, 5 tensors)

arith.constant f4 [1, 64]
-0.16188784 0.14861755 -0.17569655 -0.15156163 -0.20883581 -0.22933055 0.23947126 0.30640805
-0.1636637 0.21418786 -0.28443265 0.43123853 -0.17168331 0.11393857 -0.20046854 0.4101544
-0.0021566309 -0.25267053 0.13985167 0.30541718 -0.2987603 -0.2184765 0.15141977 0.3361692
-0.07648041 -0.08894605 0.32723188 -0.28994727 -0.18404008 -0.18076019 -0.17506024 0.25969306
0.35709894 0.1980308 -0.1119158 -0.044231657 -0.28901613 -0.31072798 0.32706976 0.3305903
-0.33793196 -0.12168497 0.30013838 -0.1838772 -0.031286627 0.15606721 -0.28056693 0.3174571
0.2710008 0.26793104 0.24978502 -0.061583824 0.1268463 0.24142763 0.14605986 -0.11864182
0.26008683 0.17833883 0.11557343 0.22478376 0.12153262 -0.18106994 0.20681418 0.4300651
00000000: edc5 25be 332f 183e cce9 33be f932 1bbe
00000010: 0ed9 55be a1d5 6abe f437 753e 84e1 9c3e
00000020: 7597 27be 1054 5b3e 28a1 91be 4ccb dc3e
00000030: c0cd 2fbe a058 e93d a047 4dbe c2ff d13e
00000040: 4356 0dbb 085e 81be 4735 0f3e a45f 9c3e
00000050: 1cf7 98be 4eb8 5fbe c90d 1b3e 5f1e ac3e
00000060: c3a1 9cbd 5929 b6bd f08a a73e f873 94be
00000070: 0175 3cbe 3319 39be fe42 33be 7df6 843e
00000080: acd5 b63e 96c8 4a3e 1c34 e5bd 412c 35bd
00000090: ecf9 93be bd17 9fbe b075 a73e 2243 a93e
000000a0: 6b05 adbe f835 f9bd bdab 993e 4e4a 3cbe
000000b0: 6826 00bd 15d0 1f3e 78a6 8fbe bd89 a23e
000000c0: 9ec0 8a3e 422e 893e a5c7 7f3e 523f 7cbd
000000d0: ffe3 013e ce38 773e b790 153e 7cfa f2bd
000000e0: 1a2a 853e 749e 363e c3b1 ec3d b72d 663e
000000f0: 18e6 f83d 666a 39be 19c7 533e 7e31 dc3e

arith.constant1 f4 [64, 128]
0.16563612 0.12053257 -0.14214581 0.14387745 -0.0008972899 0.13348061 0.06104103 -0.0005002617
0.15038137 0.14138241 0.022171404 0.04542049 -0.019157864 0.042205755 -0.15114142 -0.15020335
0.18859366 -0.13950437 -0.023953684 -0.076791614 0.08042367 -0.23108515 0.03265618 0.14345929
-0.12697856 0.018782055 -0.17307867 -0.045013554 0.10656272 0.030616809 -0.094177745 0.12149754
0.06819743 -0.0598558 0.095182605 0.14585997 -0.09614861 -0.1501939 -0.13788344 0.11009514
0.005279907 0.15576977 -0.17806041 0.17951876 0.04035602 -0.056898866 -0.004959025 -0.0052194684
-0.029199801 -0.012183517 0.1506293 0.10385227 -0.048229586 0.003052586 -0.14139058 -0.12364541
0.10152658 0.029313471 -0.0065751504 -0.029390594 0.06633352 0.100640275 0.15280035 -0.13825671
-0.07598342 0.11255367 -0.1834756 -0.067489915 -0.043772265 -0.10457037 0.060521163 -0.15566336
0.055335592 -0.10839944 -0.04701453 -0.18225764 -0.106364936 -0.062816046 0.18772441 0.11193653
-0.16312757 -0.118846424 -0.14849126 0.023657916 -0.050673317 -0.107265405 -0.12462492 0.04539262
0.017472534 0.15264437 0.07681006 -0.17115797 0.025592078 0.15160555 -0.039860304 -0.03814715
0.19463512 -0.088132344 0.14371623 -0.095363684 0.12435815 -0.0064485455 -0.10485917 -0.055330027
0.050324276 0.0805177 -0.05345848 0.020470707 -0.012875941 0.07764351 -0.003144177 -0.12582026
0.07200815 0.15070252 0.030433873 0.16878316 -0.07080884 -0.04631334 -0.10069507 -0.06358338
0.15292816 -0.16260017 -0.14773503 0.16453366 0.11550933 -0.025342828 -0.11568466 -0.15107785
-0.020351266 0.16354676 -0.16678847 -0.108763844 0.11390331 0.037605286 0.04156949 0.11857619
0.14503044 0.031497955 -0.12206296 -0.11872525 0.15859675 0.03257743 0.005820353 0.12651919
-0.1488597 -0.18017705 0.09000038 0.017679898 -0.008214317 0.1545131 0.029909305 -0.14647515
0.14517653 0.095661 0.12463653 -0.009006457 -0.16022296 0.11312694 -0.22109649 -0.0031307647
0.0039221584 -0.05397439 0.065283716 -0.23143624 -0.07725748 0.095578544 0.13164842 -0.16931656
0.10527409 0.112156816 -0.06515904 -0.090180576 -0.13132298 -0.16210617 0.042238094 0.069551416
-0.17108446 -0.014240561 0.088219054 -0.10968222 0.10347888 0.17256108 -0.04480518 -0.10048096
-0.026335219 -0.07883943 0.16053933 0.0061682262 0.16097216 0.11892833 -0.009320039 0.1336438
0.12541285 -0.00829097 0.03697921 -0.057464465 -0.16006687 -0.07067278 0.16620721 -0.16296
-0.14858669 0.14491387 -0.21577683 -0.13189179 -0.019764792 0.09331174 -0.04203688 -0.13941306
0.10906119 -0.16631027 -0.062171113 -0.0214962 0.17670333 0.17561433 -0.029040206 0.0065955687
-0.023027845 0.15810253 -0.12824833 0.02183098 0.07146486 -0.14101508 -0.16266426 -0.07558215
-0.17902519 -0.07808567 0.12285714 0.109289005 -0.09399411 0.009136671 -0.029480163 0.12630978
-0.08601092 -0.05734475 0.08879519 -0.08271274 0.11726031 0.15056081 0.098295026 0.11666982
0.06563972 -0.16415627 -0.034566138 0.024664998 0.15870418 -0.17891367 0.033444557 0.09961762
-0.047560707 0.0567852 -0.063265525 0.1848886 0.11388346 -0.03856049 0.16618976 -0.08693061
00000000: 849c 293e c8d9 f63d ac8e 11be 9c54 133e
00000010: 1b38 6bba 24af 083e 2906 7a3d ff23 03ba
00000020: 93fd 193e 8dc6 103e cea0 b53c d60a 3a3d
00000030: f4f0 9cbc f1df 2c3d d1c4 1abe e8ce 19be
00000040: b21e 413e 3cda 0ebe 843a c4bc ec44 9dbd
00000050: 2ab5 a43d 96a1 6cbe 7dc2 053d fee6 123e
00000060: ab06 02be d3dc 993c 893b 31be 2260 38bd
00000070: 8e3d da3d 1ad0 fa3c 43e0 c0bd b4d3 f83d
00000080: 18ab 8b3d 5b2b 75bd 19ef c23d 515c 153e
00000090: 90e9 c4bd 6ecc 19be 5131 0dbe 9079 e13d
000000a0: 1203 ad3b 1c82 1f3e 7855 36be c4d3 373e
000000b0: 5b4c 253d c90e 69bd 517f a2bb 1308 abbb
000000c0: 6c34 efbc 609d 47bc 913e 1a3e 80b0 d43d
000000d0: 638c 45bd e50d 483b b1c8 10be ce39 fdbd
000000e0: 2bed cf3d ce22 f03c 5c74 d7bb 8bc4 f0bc
000000f0: ded9 873d 7d1c ce3d b277 1c3e 2b93 0dbe
00000100: 329d 9bbd 8a82 e63d 07e1 3bbe 2738 8abd
00000110: 8c4a 33bd fd28 d6bd 0ae5 773d 3766 1fbe
00000120: 93a7 623d 8700 debd 4f92 40bd bfa1 3abe
00000130: dcd5 d9bd b3a5 80bd d43a 403e fb3e e53d
00000140: ea0a 27be c165 f3bd 180e 18be 3fce c13c
00000150: d38e 4fbd f7ad dbbd 5a3b ffbd 9ded 393d
00000160: 8f22 8f3c ce4e 1c3e 984e 9d3d 0944 2fbe
00000170: 7aa6 d13c 7c3e 1b3e 8f44 23bd 3040 1cbd
00000180: 6e4e 473e bb7e b4bd 592a 133e 094e c3bd
00000190: 7caf fe3d 524e d3bb 68c0 d6bd bda1 62bd
000001a0: d420 4e3d 77e6 a43d 47f7 5abd 2fb2 a73c
000001b0: 9cf5 52bc 9003 9f3d 890e 4ebb 07d7 00be
000001c0: 0279 933d c351 1a3e 7550 f93c 7ed5 2c3e
000001d0: 3a04 91bd 0fb3 3dbd 3839 cebd 0138 82bd
000001e0: 3399 1c3e a980 26be da47 17be 837b 283e
000001f0: 2890 ec3d c39b cfbc 14ec ecbd 27b4 1abe
00000200: b3b7 a6bc cd78 273e 99ca 2abe 94bf debd
00000210: 2346 e93d 0008 1a3d c544 2a3d 13d8 f23d
00000220: dc82 143e 0004 013d 25fc f9bd 3926 f3bd
00000230: 3067 223e e96f 053d a9b8 be3b 3f8e 013e
00000240: ad6e 18be 5580 38be 1f52 b83d 6fd5 903c
00000250: 5895 06bc af38 1e3e 5c04 f53c 95fd 15be
00000260: 28a9 143e eae9 c33d 7041 ff3d d28f 13bc
00000270: 7d11 24be 19af e73d 1e67 62be 842d 4dbb
00000280: 7385 803b 4014 5dbd 78b3 853d 9ffd 6cbe
00000290: 2b39 9ebd afbe c33d d8ce 063e 5261 2dbe
000002a0: f199 d73d 79b2 e53d 1a72 85bd 98b0 b8bd
000002b0: 8879 06be 29ff 25be da01 2d3d f970 8e3d
000002c0: c430 2fbe 3e51 69bc 31ac b43d 12a1 e0bd
000002d0: bcec d33d dab3 303e a385 37bd f6c8 cdbd
000002e0: f5bc d7bc 9176 a1bd 6c64 243e d51e ca3b
000002f0: e3d5 243e b290 f33d 14b3 18bc ecd9 083e
00000300: 3a6c 003e d9d6 07bc 8377 173d dc5f 6bbd
00000310: 92e8 23be e4bc 90bd 3932 2a3e fcde 26be
00000320: 1c27 18be 4d64 143e 9af4 5cbe a40e 07be
00000330: c6e9 a1bc 3a1a bf3d dd2e 2cbd 4cc2 0ebe
00000340: 795b df3d 3d4d 2abe 23a7 7ebd cc18 b0bc
00000350: b8f1 343e 3ed4 333e bae5 edbc a41f d83b
00000360: e4a4 bcbc a1e5 213e 8853 03be e2d6 b23c
00000370: 2b5c 923d 4266 10be 7691 26be d0ca 9abd
00000380: 6152 37be 61eb 9fbd 869c fb3d ead2 df3d
00000390: fc7f c0bd fab1 153c 6280 f1bc 5a57 013e
000003a0: 7e26 b0bd 54e2 6abd 41da b53d 4c65 a9bd
000003b0: 2c26 f03d 9d2c 1a3e e74e c93d 96f0 ee3d
000003c0: 1e6e 863d 9518 28be 3995 0dbd 400e ca3c
000003d0: 5983 223e 2535 37be 29fd 083d 5304 cc3d
000003e0: 04cf 42bd 9997 683d 5b91 81bd 7053 3d3e
000003f0: bb3b e93d 9bf1 1dbd a62d 2a3e ad08 b2bd

arith.constant2 f4 [128, 12]
-0.05896381 0.0053063408 -0.03733669 -0.04521502 0.11602799 0.11062242 -0.015092438 -0.12282436
-0.13997866 -0.1497681 0.04879611 -0.06444 0.23703095 -0.11892162 0.18414325 -0.14447056
0.043401156 -0.01002237 0.10163839 -0.22892334 0.040341925 0.10221639 -0.038510337 -0.06436288
-0.042251773 -0.073101394 0.06353597 0.08137568 0.04540713 0.101757854 0.08600512 -0.09949285
-0.08076282 0.15292819 -0.08265646 -0.1540784 0.039198194 0.06802534 -0.15863568 -0.07801285
-0.2150209 -0.14739026 0.11330279 -0.046916693 0.105992466 -0.092956446 -0.0498207 0.22461788
0.049562566 0.10061604 -0.08085555 -0.031063585 0.15644613 -0.0042310907 -0.10425337 0.0748628
0.14064232 -0.013218316 0.17601949 0.06705775 0.16907592 -0.119502865 -0.21559939 -0.2034216
-0.17114606 0.12299179 -0.104069926 0.014673205 -0.1415509 0.044694867 -0.113458626 -0.13582791
-0.1265226 -0.1284166 0.11755459 0.08522202 -0.00012697696 0.14186314 -0.021645376 -0.061073463
0.03036459 -0.043047156 0.030432738 -0.14796996 0.12513869 0.0686261 -0.25721171 0.17193915
-0.005316533 0.07716702 -0.07041512 0.12744042 -0.02571733 0.21541497 0.037783932 -0.013906844
-0.016146732 -0.22346413 -0.13223097 -0.06987099 -0.13317221 0.015725888 0.091518745 -0.08486727
-0.0019345918 0.053968295 -0.19594198 0.23876162 0.21080907 -0.15145801 -0.05665785 0.12800565
0.12780957 0.057648573 -0.07084957 0.10212068 -0.06852573 -0.009120888 -0.118354164 -0.17714724
-0.14399296 -0.052632004 -0.16048956 0.12550975 -0.01120559 0.14864586 -0.14475952 -0.0502597
-0.026236787 0.14977168 0.036110625 0.31787008 0.13360663 0.20564672 0.059844233 0.009417289
0.04058609 -0.1082312 0.056363963 0.10608614 -0.18386939 0.1832979 -0.08835223 -0.1795892
-0.11638293 -0.18992363 0.1858248 0.15364492 0.10265356 -0.16938938 0.1592695 0.019114666
-0.13436066 0.01977247 -0.16289562 0.06334194 -0.19187023 0.17667949 0.06308954 0.04049501
-0.11105615 -0.06631406 0.019645415 -0.04627141 0.08964758 0.122708246 -0.05574925 -0.1685286
-0.03140353 -0.010307404 -0.14195964 0.16700508 -0.056700174 0.046482127 0.1459819 0.044396676
0.058323584 0.0473377 -0.23676525 0.08680501 0.09962311 -0.028997147 0.09862494 0.13837424
0.04141312 0.031197961 -0.21369147 -0.17652461 0.1268704 -0.08309738 0.07139875 0.19515133
-0.051658284 -0.22985718 0.17472243 -0.18509075 0.0055893417 -0.067775115 -0.052309368 -0.08802021
-0.027558994 0.105116576 0.041826554 -0.17455861 -0.10834203 -0.27731478 0.044544503 -0.13070403
-0.0796005 -0.06939021 -0.021557098 0.18018414 -0.04812364 -0.0676504 0.10662489 0.08711005
0.12247055 0.015821941 0.0037195976 0.015718948 0.1337487 -0.19843204 -0.0047389837 -0.19684006
-0.04193249 0.14315473 0.042238414 0.11441778 -0.021224298 0.115626834 -0.2516084 0.14744739
-0.14429452 -0.102765314 -0.1626949 -0.05127714 0.13520278 -0.14526804 0.016218161 -0.054636806
0.18771175 -0.019615399 0.20716843 0.07012832 -0.12849368 0.111747734 0.0016635015 0.063562736
0.05550926 0.023775483 -0.11564227 -0.27511635 -0.05820478 -0.07615027 0.16007967 0.16781062
00000000: 0984 71bd d0e0 ad3b 5bee 18bd 6333 39bd
00000010: 15a0 ed3d 028e e23d 4646 77bc 578b fbbd
00000020: 9156 0fbe cf5c 19be 6ede 473d 1ef9 83bd
00000030: 3eb8 723e 2e8d f3bd 0c90 3c3e 17f0 13be
00000040: 69c5 313d de34 24bc ca27 d03d e16a 6abe
00000050: 933d 253d d456 d13d 04bd 1dbd b0d0 83bd
00000060: 3210 2dbd 2fb6 95bd 261f 823d 4ba8 a63d
00000070: d4fc 393d 6c66 d03d 7423 b03d e8c2 cbbd
00000080: fa66 a5bd 3599 1c3e ca47 a9bd bac6 1dbe
00000090: 498e 203d df50 8b3d 6471 22be 33c5 9fbd
000000a0: 702e 5cbe 79ed 16be 4b0b e83d b82b 40bd
000000b0: 9412 d93d f35f bebd ca10 4cbd 3b02 663e
000000c0: 1e02 4b3d c80f ce3d 9897 a5bd 0f79 febc
000000d0: 6a33 203e f6a4 8abb ca82 d5bd ab51 993d
000000e0: 8a04 103e a391 58bc 743e 343e 9355 893d
000000f0: 3d22 2d3e ebbd f4bd 16c6 5cbe c04d 50be
00000100: ea40 2fbe 1fe3 fb3d 9d22 d5bd e267 703c
00000110: b8f2 10be f711 373d ff5c e8bd 7916 0bbe
00000120: 248f 01be a47f 03be 76c0 f03d e288 ae3d
00000130: 1e25 05b9 9244 113e a551 b1bc 2b28 7abd
00000140: 29bf f83c 3752 30bd 144e f93c 7085 17be
00000150: 5b24 003e d78b 8c3d 41b1 83be d110 303e
00000160: 5036 aebb be09 9e3d cd35 90bd be7f 023e
00000170: 26ad d2bc be95 5c3e 53c3 1a3d 88d9 63bc
00000180: 2746 84bc c8d3 64be 8e67 07be 8618 8fbd
00000190: 4c5e 08be 94d3 803c 2e6e bb3d e4ce adbd
000001a0: 2192 fdba dc0d 5d3d 04a5 48be ed7d 743e
000001b0: 55de 573e cf17 1bbe 1012 68bd ea13 033e
000001c0: 83e0 023e e920 6c3d 9419 91bd a624 d13d
000001d0: 3857 8cbd c76f 15bc ab63 f2bd 1666 35be
000001e0: e472 13be a894 57bd 6057 24be a185 003e
000001f0: a797 37bc 9f36 183e d73b 14be 1ddd 4dbd
00000200: 88ee d6bc bf5d 193e bce8 133d debf a23e
00000210: 2dd0 083e 0e95 523e 3a1f 753d f94a 1a3c
00000220: 9a3d 263d 52a8 ddbd e6dd 663d b143 d93d
00000230: 4248 3cbe 72b2 3b3e 04f2 b4bd 3be6 37be
00000240: 2c5a eebd 577b 42be db48 3e3e 1855 1d3e
00000250: 083c d23d 6974 2dbe 8b17 233e 5c96 9c3c
00000260: d795 09be e0f9 a13c 1cce 26be 6bb9 813d
00000270: a179 44be 78eb 343e 1735 813d 18de 253d
00000280: 6871 e3bd aacf 87bd 6cef a03c 1787 3dbd
00000290: 2799 b73d 764e fb3d 5359 64bd c392 2cbe
000002a0: fda0 00bd 63e0 28bc de5d 11be 6103 2b3e
000002b0: 713e 68bd 0b64 3e3d 477c 153e 4ad9 353d
000002c0: b6e4 6e3d 2de5 413d 9772 72be d3c6 b13d
000002d0: 3307 cc3d 6d8b edbc dffb c93d fab1 0d3e
000002e0: cea0 293d de92 ff3c f0d1 5abe dec2 34be
000002f0: 50ea 013e f62e aabd 8239 923d c0d5 473e
00000300: a397 53bd ae5f 6bbe 70ea 323e 6e88 3dbe
00000310: cc26 b73b aecd 8abd 5942 56bd f143 b4bd
00000320: 66c3 e1bc 5c47 d73d 5252 2b3d 7ebf 32be
00000330: 6de2 ddbd 34fc 8dbe 4c74 363d 47d7 05be
00000340: 9605 a3bd 741c 8ebd 8398 b0bc 3182 383e
00000350: 4b1d 45bd 4b8c 8abd 265e da3d c166 b23d
00000360: d7d1 fa3d 049d 813c 7ec4 733b 06c5 803c
00000370: 6bf5 083e c531 4bbe 7a49 9bbb 7190 49be
00000380: 67c1 2bbd 2797 123e 3002 2d3d de53 ea3d
00000390: 94de adbc c3cd ec3d d1d2 80be 73fc 163e
000003a0: f1c1 13be 9f76 d2bd 7e99 26be fa07 52bd
000003b0: 9972 0a3e 25c1 14be f3db 843c d8ca 5fbd
000003c0: 8237 403e 79b0 a0bc f623 543e 709f 8f3d
000003d0: d993 03be ffdb e43d d909 da3a 2e2d 823d
000003e0: ae5d 633d cdc4 c23c dbd5 ecbd 0ddc 8cbe
000003f0: 2368 6ebd acf4 9bbd edeb 233e 8cd6 2b3e

arith.constant29 f4 [64]
-0.026121136 -0.059735026 -0.059811927 -0.04943205 -0.0012905152 -0.017324422 0.013808421 0.087129675
-0.020260202 0.070977546 -0.020866131 0.012440687 0.0600434 0.021603301 -0.029394329 -0.16662337
-0.011371365 -0.021589946 -0.06035936 0.08522745 -0.070674635 -0.036425486 0.06629809 0.11333028
-0.041835964 -0.06613388 0.018115707 -0.014270851 -0.040740527 -0.020519074 -0.00814511 0.10361564
0.07194362 0.034584783 -0.039731514 -0.026844537 -0.062195584 -0.028236242 -0.02315376 0.08806777
-0.068025425 -0.032867122 0.0054549747 -0.026762778 -0.019335913 0.04507782 -0.05287978 0.08912493
0.033269566 0.09198252 0.07536286 -0.012317693 0.027451016 0.020732855 -0.08105653 -0.034563787
0.11602456 0.099075235 0.013863264 0.0790069 0.0432219 -0.023692135 0.070420004 -0.0064295596
00000000: fefb d5bc b7ac 74bd 5afd 74bd 4379 4abd
00000010: 8126 a9ba f2eb 8dbc b73c 623c 0b71 b23d
00000020: b9f8 a5bc ad5c 913d 73ef aabc 06d4 4b3c
00000030: 11f0 753d 68f9 b03c 60cc f0bc 519f 2abe
00000040: f64e 3abc 66dd b0bc 603b 77bd bb8b ae3d
00000050: ddbd 90bd e432 15bd 4bc7 873d b519 e83d
00000060: 305c 2bbd 3371 87bd 6467 943c 4ad0 69bc
00000070: 8adf 26bd 9e17 a8bc 1173 05bc 7034 d43d
00000080: 2d57 933d c6a8 0d3d 83bd 22bd 13e9 dbbc
00000090: ccc0 7ebd b14f e7bc f4ac bdbc e05c b43d
000000a0: ea50 8bbd ad9f 06bd a5bf b23b 9d3d dbbc
000000b0: 5966 9ebc 85a3 383d 7898 58bd 2287 b63d
000000c0: ab45 083d 5561 bc3d d857 9a3d 26d0 49bc
000000d0: f4e0 e03c f3d7 a93c f700 a6bd c292 0dbd
000000e0: 499e ed3d f5e7 ca3d be22 633c 5fce a13d
000000f0: 7209 313d 0216 c2bc 5d38 903d 0eaf d2bb

arith.constant30 f4 [128]
0.02829404 0.0865615 -0.0023137743 0.017675024 -0.04074562 0.025211126 -0.047938406 -0.15027276
-0.023224227 -0.04564404 -0.0136907855 0.07874185 -0.02777118 -0.099975064 0.025023574 0.02747583
-0.021812813 -0.032158133 0.046179503 -0.092236534 0.098999634 0.027688164 -0.00681692 -0.0043277023
0.10228866 0.035437454 -0.13780025 -0.026336016 0.041799165 -0.13007136 0.14639732 -0.074206226
-0.04372965 -0.11802183 0.06390304 0.0068110554 -0.07656163 -0.0479419 -0.0038496016 -0.048370123
-0.07343544 -0.05794189 -0.008250753 -0.025297053 0.12300876 -0.079387665 -0.041568406 0.032548957
0.021356327 0.006622745 -0.025471542 -0.01486607 0.0047952775 -0.052599054 -0.055107895 -0.01194722
-0.07915821 -0.0015064876 -0.01607583 -0.052255798 -0.06947743 0.06930582 -0.028320467 -0.08497458
-0.007885506 -0.033935636 0.02186701 0.03967588 0.084243365 0.02512016 0.014448956 0.053580858
-0.0057961927 -0.04673689 -0.032999918 -0.030751023 -0.071433656 -0.057151705 -0.022200836 -0.019469583
-0.107253075 0.00886423 0.08932017 0.014377386 -0.16213045 -0.03386409 -0.002841649 -0.02649691
-0.009398504 -0.058377083 0.042561565 0.00085077464 -0.03177496 0.095569976 0.029230924 -0.05077048
0.01285289 0.13999216 -0.035320107 0.07105031 -0.024072338 0.013220826 -0.17036588 -0.0031812428
0.0099067055 -0.14387628 0.080927104 0.04517501 0.0037622135 0.04417915 0.0060846256 -0.010222122
0.013095744 0.082133956 0.0007898978 -0.0584542 0.037233483 0.0036862257 0.028158277 0.0037382543
-0.013515917 -0.020003404 0.021896156 0.077528976 -0.039094683 -0.0074114744 0.01514279 0.014615735
00000000: e7c8 e73c 2847 b13d b1a2 17bb 36cb 903c
00000010: e1e4 26bd 9087 ce3c 105b 44bd 1ae1 19be
00000020: bc40 bebc 3ff5 3abd 514f 60bc 6843 a13d
00000030: 6380 e3bc babf ccbd 3dfe cc3c fe14 e13c
00000040: c9b0 b2bc 3fb8 03bd b826 3d3d 82e6 bcbd
00000050: 52c0 ca3d 4ad2 e23c 7860 dfbb 66cf 8dbb
00000060: b87c d13d dd26 113d 821b 0dbe a1be d7bc
00000070: 9a35 2b3d 6d31 05be 2ee9 153e 6ff9 97bd
00000080: dd1d 33bd 6eb5 f1bd 99df 823d 462f df3b
00000090: 58cc 9cbd ba5e 44bd 9949 7cbb c01f 46bd
000000a0: 5265 96bd 7a54 6dbd 2b2e 07bc c43b cfbc
000000b0: 04ec fb3d 0096 a2bd a243 2abd 0e52 053d
000000c0: 77f3 ae3c 9d03 d93b b2a9 d0bc d190 73bc
000000d0: b421 9d3b 1b72 57bd d1b8 61bd 46be 43bc
000000e0: b31d a2bd 5675 c5ba 76b1 83bc 2d0a 56bd
000000f0: 2f4a 8ebd 36f0 8d3d 5300 e8bc 2707 aebd
00000100: 3632 01bc 1800 0bbd 7222 b33c 2d83 223d
00000110: c987 ac3d cbc8 cd3c 50bb 6c3c 9a77 5b3d
00000120: fded bdbb 2e6f 3fbd ec2a 07bd 92e9 fbbc
00000130: cf4b 92bd e817 6abd 87de b5bc ad7e 9fbc
00000140: 80a7 dbbd 463b 113c 7eed b63d 218f 6b3c
00000150: 8605 26be 12b5 0abd f63a 3abb 0c10 d9bc
00000160: 2ffc 19bc cf1c 6fbd 0955 2e3d 8506 5f3a
00000170: 7626 02bd 31ba c33d b175 ef3c b5f4 4fbd
00000180: ee94 523c 1b5a 0f3e d1ab 10bd d382 913d
00000190: 5a33 c5bc 2a9c 583c 6574 2ebe 667c 50bb
000001a0: bc4f 223c 4e54 13be 1cbd a53d 6e09 393d
000001b0: 788f 763b 32f5 343d 8a61 c73b b07a 27bc
000001c0: 888f 563c d935 a83d 2511 4f3a ac6d 6fbd
000001d0: 2382 183d 9b94 713b 30ac e63c 80fd 743b
000001e0: dd71 5dbc 2ede a3bc 915f b33c 83c7 9e3d
000001f0: bf21 20bd f4db f2bb 7719 783c d676 6f3c
